Image_Generating_Models/weights/ac_discriminator_weights.pth (torch, 491476 bytes, 23 tensors)

conv_blocks.0.weight f4 [16, 3, 3, 3]
0	0x3d4b0e5b	0.049574237
1	0x3e64d719	0.22347678
2	0xbe57c361	-0.21070625
3	0x3e45b2c3	0.19306473
4	0x3ec66a78	0.38753104
5	0xbcdeb2b3	-0.02718482
6	0xbd22eca3	-0.039776456
7	0x3db32a60	0.08748317
8	0xbe8630a5	-0.26208988
9	0x3c74522c	0.014912169
10	0x3e0ee279	0.1395358
11	0xbe1480fc	-0.14502329
12	0xbc8036d7	-0.01565115
13	0x3de97424	0.11399105
14	0xbe1cd1d9	-0.15314426
15	0xbcbdcaaf	-0.023167936
16	0x3e0afa61	0.13572074
17	0xbde65741	-0.11247111
18	0xbd808f0c	-0.06277284
19	0x3c832519	0.0160089
20	0xbd08538b	-0.033282798
21	0xbdb9c8a0	-0.09071469
22	0xbcba9e96	-0.022780698
23	0xbdc34f9a	-0.09536667
24	0xbcea41cb	-0.028595826
25	0xbaa956c1	-0.0012919531
26	0xbd674825	-0.056465287
27	0x3dbecaee	0.093160495
28	0x3e229464	0.15876919
29	0xbd4e35a1	-0.050344113
30	0x3db55c92	0.08855547
31	0x3e2878fd	0.16452403
32	0xbc8514d7	-0.016245289
33	0x3d388e41	0.04505754
34	0x3d97194a	0.073778704
35	0xbd67d1d8	-0.056596607
36	0x3cdea258	0.02717702
37	0xbc593017	-0.013256094
38	0x3cdd561a	0.027018595
39	0xbd9bc82a	-0.07606538
40	0xbd51be58	-0.051206917
41	0xbd437593	-0.04771955
42	0x3d4b5b79	0.049647782
43	0x3d2a4f03	0.041579258
44	0x3db468d8	0.0880906
45	0xbdbc48ba	-0.09193559
46	0xbe071f17	-0.13195454
47	0x3cf65f7c	0.030074827
48	0xbe3fc793	-0.18728475
49	0xbe888879	-0.2666662
50	0xbd40ce2e	-0.04707163
51	0x3d2c0991	0.04200131
52	0xbd13767c	-0.036001667
53	0x3e14bcc6	0.14525136
54	0xbdf3b112	-0.11899008
55	0xbd5b4fa3	-0.053542744
56	0xbda9b533	-0.08286514
57	0xbdc81448	-0.09769493
58	0xbd00af16	-0.031416975
59	0xbd1ccb1f	-0.03827965
60	0xbd8eb1c5	-0.069675006
61	0x3cdb5691	0.026774677
62	0x3d517a48	0.051142007
63	0x3d14e78f	0.036353644
64	0x3e057ddf	0.13036297
65	0x3e3ecd86	0.18633088
66	0x3d0c730e	0.034289412
67	0x3df33126	0.11874609
68	0x3e3eca75	0.18631919
69	0x3dcc20c2	0.099671856
70	0x3e3ec17c	0.18628496
71	0x3e6ca590	0.23110032
72	0xbda99d14	-0.082819134
73	0xbc784f4d	-0.0151556255
74	0xbdac2dae	-0.0840715
75	0xbde7e99e	-0.11323856
76	0xbd388c28	-0.04505554
77	0xbdd28fd6	-0.10281341
78	0xbdb4ddb4	-0.08831349
79	0xbc3aee3d	-0.0114093395
80	0xbdf9b646	-0.12192969
81	0x3d90e26a	0.07074435
82	0x3da77bfb	0.08177944
83	0x3d4f117d	0.050553787
84	0x3dd7853d	0.1052346
85	0x3dd5cfd6	0.10440032
86	0x3d8944c4	0.06702569
87	0x3da6cf0c	0.0814496
88	0x3c79337c	0.015210029
89	0x3c75d186	0.015003568
90	0xbdd4f800	-0.10398865
91	0xbe03a4f3	-0.12855892
92	0xbdbd9744	-0.09257367
93	0xbe493df8	-0.19652545
94	0xbe3f4977	-0.18680368
95	0xbdd449d3	-0.10365643
96	0xbe240d23	-0.16020636
97	0xbdf43658	-0.11924428
98	0xbdace52d	-0.08442149
99	0x3d985ad9	0.07439203
100	0x3d49386a	0.049126066
101	0x3d1ca1a1	0.03824008
102	0x3d4639be	0.04839491
103	0x3cd677f3	0.026180243
104	0x3ce3ae40	0.02779305
105	0x3e1364ef	0.14393972
106	0x3db97b63	0.09056737
107	0x3d5f7016	0.054550253
108	0x3e3f7e06	0.18700418
109	0x3d8e4208	0.06946188
110	0xbd9712b6	-0.07376616
111	0x3e08c53e	0.13356492
112	0xbd876f69	-0.06613047
113	0xbe2521de	-0.161262
114	0x3d926da9	0.07149822
115	0xbd81a0bf	-0.06329488
116	0xbe11eb94	-0.14250022
117	0x3e27595f	0.16342686
118	0x3c4b2ece	0.012401296
119	0xbda400b3	-0.08007946
120	0x3e2ebf9f	0.17065285
121	0xbc89ab99	-0.016805457
122	0xbdf8a984	-0.121417075
123	0x3dd7efac	0.10543761
124	0xbd3817f2	-0.04494471
125	0xbe250770	-0.16116118
126	0x3e0ef491	0.13960482
127	0xbc9b84ce	-0.018984225
128	0xbdc34273	-0.095341586
129	0x3ded3437	0.11582225
130	0xbd4dd120	-0.050248265
131	0xbdb7657c	-0.089549035
132	0x3dd552b5	0.10416166
133	0xbabf1d88	-0.0014580945
134	0xbdc68dd0	-0.09695017
135	0xbd2d0f9a	-0.042251207
136	0xbd81a587	-0.063304
137	0xbd80cb95	-0.0628883
138	0x3dd2b1d9	0.10287828
139	0x3baf6e37	0.005353715
140	0x3dd09194	0.10184017
141	0x3e152b7c	0.14567369
142	0x3da95479	0.08268065
143	0x3e071817	0.13192783
144	0xbe0dbf31	-0.13842465
145	0xbe201b01	-0.15635301
146	0xbdf6d87a	-0.120530084
147	0xbcd4662c	-0.025927626
148	0xbe0120b2	-0.12610129
149	0xbc656dde	-0.014003245
150	0x3d530151	0.051514927
151	0x3c71cf0a	0.014758835
152	0x3dd07e44	0.10180333
153	0xbab7c745	-0.0014021179
154	0xbd911c01	-0.070854194
155	0x3c977700	0.01848936
156	0x3c0912ff	0.008366345
157	0xbd0f1668	-0.034933478
158	0x3daaa70e	0.083326444
159	0x3e0b94bc	0.13630956
160	0x3d1d8d2d	0.038464714
161	0x3e3830d9	0.17987384
162	0x3cafd634	0.021464445
163	0x3c5ce66f	0.013482674
164	0x3d985baf	0.07439362
165	0xbd43c7bf	-0.047797915
166	0xbd8b5243	-0.068027996
167	0x3d3e0b7e	0.04639768
168	0xbb5341a6	-0.0032235174
169	0xbda425dd	-0.08015034
170	0x3c6212eb	0.013798456
171	0xbc8fa977	-0.017536862
172	0x3c18dfaf	0.009330674
173	0x3da0dac9	0.0785423
174	0xbd500d4b	-0.050793927
175	0xbd9e4610	-0.07728207
176	0x3d430596	0.04761275
177	0xbb8a8bf7	-0.004228111
178	0x3d4d0ec1	0.0500629
179	0x3e121231	0.14264752
180	0xbe2fc011	-0.17163111
181	0xbd84a675	-0.06477062
182	0xbcac5392	-0.021035943
183	0xbe3ac046	-0.18237409
184	0xbe08520d	-0.1331255
185	0xbd2ec2be	-0.04266619
186	0xbd5db51e	-0.054127805
187	0x3b6f1bd9	0.0036485104
188	0x3cf607f4	0.03003309
189	0x3c56611d	0.013084677
190	0x3cb39652	0.021922264
191	0x39bb959e	0.00035778893
192	0x3c2ab61b	0.010419394
193	0x3e184330	0.1486938
194	0xbc40b688	-0.011762269
195	0xbda352e6	-0.07974796
196	0x39f82c5a	0.0004733529
197	0xbd9898c5	-0.074510135
198	0x3b4955de	0.0030721347
199	0x3d43218d	0.04763942
200	0xbd444047	-0.047912862
201	0x3ddbb4a8	0.10727817
202	0x3db1776c	0.08665356
203	0x3c3ca62e	0.01151423
204	0xbde25d31	-0.11052931
205	0xbdd37c97	-0.10326498
206	0xbe514e33	-0.20439987
207	0x3e182356	0.1485723
208	0x3dd757e6	0.10514812
209	0xbb81ac2a	-0.003957291
210	0x3e429369	0.19001545
211	0x3e4b1a60	0.1983428
212	0x3e0b6307	0.13611995
213	0xbd7f2eac	-0.06230037
214	0xbb3ff1c2	-0.0029288386
215	0xbde66490	-0.112496495
216	0xbd554275	-0.05206533
217	0xbe17a248	-0.14807999
218	0xbd0951f9	-0.03352544
219	0xbe442a4d	-0.19156761
220	0xbe96b70a	-0.29436523
221	0xbe41e8aa	-0.1893641
222	0x3d313d31	0.043271247
223	0x3c245860	0.010030836
224	0x3d15769b	0.036490064
225	0xbd9052b1	-0.07047022
226	0xbd83dd52	-0.06438698
227	0xbc908ee3	-0.017646259
228	0xbc2aca12	-0.010424154
229	0xbdaf5490	-0.08561051
230	0x3c8e3ebb	0.017363897
231	0xbd8cf577	-0.06882756
232	0xbdabfa1a	-0.083973125
233	0xbc45fe09	-0.0120844925
234	0x3dfed6ae	0.12443291
235	0x3e3c5f49	0.18395723
236	0x3d8d7aa9	0.06908161
237	0x3e5fd5ae	0.21858856
238	0x3e9a5257	0.30140945
239	0x3e522cc5	0.2052489
240	0x3cf94708	0.030429378
241	0x3e0ed608	0.13948834
242	0x3cde92fb	0.027169695
243	0xbde6100b	-0.11233529
244	0x3c32e445	0.0109186815
245	0x3e009974	0.12558538
246	0xbdd41e68	-0.10357362
247	0xbd36ab7a	-0.044597127
248	0x3e059a28	0.13047087
249	0xbe14efad	-0.14544554
250	0x3c9eda94	0.019391336
251	0x3e00da2d	0.12583227
252	0xbe37a444	-0.17933756
253	0xbc84d2e5	-0.016213844
254	0x3e0f5a7a	0.13999358
255	0xbe543e9b	-0.20727007

conv_blocks.0.bias f4 [16]
0	0x3c696b9f	0.01424685
1	0xbb678c39	-0.0035331382
2	0xbdc1f220	-0.0947001
3	0xbd7d9bae	-0.061916046
4	0xbc21fa13	-0.0098862825
5	0xbe300c65	-0.17192228
6	0xbe4d0993	-0.20023184
7	0xbdffff60	-0.12499881
8	0xbd2ad666	-0.041708373
9	0xbc416baa	-0.011805454
10	0xbe33de5c	-0.17565292
11	0xbe09f4ab	-0.1347224
12	0xbb077588	-0.002066942
13	0xbca095b7	-0.01960264
14	0xbe3dcab8	-0.18534362
15	0xbd221b24	-0.039576665

conv_blocks.3.weight f4 [32, 16, 3, 3]
0	0xbd8023a3	-0.06256797
1	0xbd8f6751	-0.07002128
2	0xbd5c3713	-0.05376346
3	0x3bb74fdc	0.005594237
4	0xbbd47a5e	-0.006484314
5	0xbbbe33ee	-0.0058045303
6	0x3dd3011a	0.103029445
7	0x3dbd0c7b	0.09230896
8	0x3d828ce3	0.06374528
9	0xbdb44c96	-0.0880367
10	0xbdfba3ac	-0.12287077
11	0xbe15cf89	-0.1462995
12	0xbdaf1dd8	-0.08550614
13	0xbd08f567	-0.03343716
14	0xbd62e108	-0.055390388
15	0x3e30e4a2	0.17274716
16	0x3e1a64f9	0.1507758
17	0x3ded9287	0.116002135
18	0x3dd39973	0.103320025
19	0x3ce3b198	0.027794644
20	0x3ce37176	0.027764063
21	0xbd9f3744	-0.07774213
22	0xbd963f97	-0.073363476
23	0xbd6d9a4d	-0.05800848
24	0xbd42b6ad	-0.047537494
25	0xbc1db76f	-0.0096262535
26	0x3c866683	0.016406303
27	0xbe79648b	-0.2435476
28	0xbe7b8f03	-0.24566273
29	0xbe2ffaf5	-0.17185576
30	0xbc048608	-0.008088596
31	0xbd3e0ffe	-0.04640197
32	0x3d3fa461	0.046787623
33	0x3df849ea	0.12123473
34	0x3e087fee	0.13330051
35	0x3e1cfe74	0.15331441
36	0x3e0554ff	0.13020705
37	0x3d77c439	0.060489867
38	0x3db12e14	0.08651367
39	0xbc2f51d9	-0.010700666
40	0xbc851486	-0.016245138
41	0xbd2a7557	-0.04161581
42	0xbd2d29a8	-0.042276055
43	0xbd128319	-0.035769556
44	0xbd5b7a30	-0.053583324
45	0x3e06975b	0.13143675
46	0x3dc8593d	0.09782646
47	0x3e0277db	0.12741034
48	0xbdc575d3	-0.09641614
49	0xbd8f74e0	-0.07004714
50	0x3b82ebc9	0.003995393
51	0xbd57168a	-0.05251173
52	0xbd64c0fa	-0.0558481
53	0xbd1fff91	-0.039062086
54	0xbe034026	-0.1281744
55	0xbdc26b73	-0.094931506
56	0xbdfad80c	-0.12248239
57	0x3d08cf03	0.033400547
58	0x3baf923d	0.005358009
59	0x3c8e9fdb	0.01741021
60	0x3e109bd9	0.14121951
61	0x3da2492e	0.07924114
62	0x3d573c76	0.052547894
63	0x3e30bfc7	0.17260657
64	0x3df4ac99	0.11946983
65	0x3dac09e6	0.084003255
66	0xbcab9e18	-0.020949408
67	0x3ba5b82f	0.005057357
68	0x3c94a31c	0.018144183
69	0xbe362612	-0.1778796
70	0xbdfef999	-0.12449951
71	0xbda39fec	-0.07989487
72	0x3d1149bc	0.03547071
73	0xbba8363f	-0.0051334198
74	0x3d02bfb7	0.031921115
75	0xbc608a82	-0.013704898
76	0xbdd28ded	-0.102809764
77	0xbd3f9c0b	-0.046779674
78	0x3c536736	0.012903025
79	0x3c976dcb	0.01848497
80	0x3d11fac0	0.035639524
81	0xbe882c0e	-0.2659611
82	0xbe8253ce	-0.25454563
83	0xbe835d24	-0.25656998
84	0x3d1012b5	0.03517409
85	0x3daf024e	0.085453615
86	0xbc4f7d14	-0.012664098
87	0x3de721b0	0.11285722
88	0x3e678006	0.22607431
89	0x3e112c11	0.14176966
90	0x3e1a2823	0.15054373
91	0x3d97615b	0.07391616
92	0x3dde1552	0.1084391
93	0x3a990669	0.0011674884
94	0xbcb5fef8	-0.022216305
95	0xbca0dd33	-0.019636726
96	0xbe2fe9af	-0.17178987
97	0xbd97e363	-0.074164174
98	0xbd077d3e	-0.033078425
99	0x3b4ededd	0.0031565942
100	0xbdbb348f	-0.09140884
101	0xbd956ff3	-0.07296743
102	0x3d406442	0.046970613
103	0xbc83f285	-0.016106853
104	0xbd47c6ce	-0.04877358
105	0x3ded3523	0.11582401
106	0x3d23b86d	0.039970804
107	0x3db7be18	0.089718044
108	0xbddb544b	-0.10709437
109	0xbe018ca3	-0.12651305
110	0xbdb4c5f0	-0.08826816
111	0xbd1b92cd	-0.037981797
112	0xbd6922db	-0.056918006
113	0xbd48d157	-0.049027767
114	0x3e10c15a	0.14136258
115	0x3dd07fd3	0.101806305
116	0x3e00ff4a	0.12597385
117	0xbdfe4372	-0.12415208
118	0xbdf662bf	-0.12030553
119	0xbe159fa2	-0.14611676
120	0xbc1fecc4	-0.009761039
121	0xbd1cb5be	-0.03825926
122	0xbc84e5ea	-0.016222913
123	0x3e25f814	0.16207916
124	0x3d945097	0.07241934
125	0x3ddccd44	0.10781339
126	0xbe683a02	-0.22678378
127	0xbe5accfc	-0.21367258
128	0xbe087889	-0.1332723
129	0x3bc2da7d	0.005946456
130	0x3d0d7d36	0.03454324
131	0x3d371a83	0.044703018
132	0x3e759d54	0.23985797
133	0x3e5a78c5	0.21335132
134	0x3e28ba23	0.16477256
135	0x3d1521d5	0.036409218
136	0x3cde17b3	0.02711091
137	0x3c561628	0.013066806
138	0xbd558e08	-0.052137405
139	0x3d16f7f6	0.036857568
140	0xbc400b50	-0.011721447
141	0xbbc08549	-0.005875264
142	0xbbc4b8af	-0.0060034613
143	0xbb902c8f	-0.004399843
144	0xbd742178	-0.05960223
145	0xbc9c7873	-0.019100403
146	0x3d3ae90c	0.045632407
147	0xbc0e038d	-0.008667839
148	0x3b3a1722	0.0028395136
149	0x3d88c13e	0.06677483
150	0x3c61e9d4	0.013788659
151	0x3d0caa8f	0.034342345
152	0x3d64d3e2	0.05586613
153	0xbdc3e902	-0.09565927
154	0xbd4aa1f7	-0.049470868
155	0x3ccbbbd9	0.024869846
156	0xbd0223a0	-0.031772256
157	0xbc83c5d9	-0.016085552
158	0x3d96947a	0.073525384
159	0xbc88ab4e	-0.016683247
160	0xbcab4ca3	-0.020910567
161	0x3da36bb9	0.07979531
162	0x3e609789	0.21932806
163	0x3bea5490	0.007151194
164	0xbe4e84d8	-0.20167863
165	0x3e2f7787	0.1713544
166	0x3ca79f84	0.020461805
167	0xbdf7ab9c	-0.12093279
168	0x3e1af970	0.15134215
169	0xbdd0aee8	-0.10189611
170	0xbe3dfe48	-0.18554032
171	0xbdf0260f	-0.11726009
172	0x3c35dd55	0.011100133
173	0x3db52b24	0.08846119
174	0xbe206381	-0.15662958
175	0xbd8a204d	-0.06744442
176	0xbc1cda6d	-0.009573561
177	0x3c6f0ff3	0.014591205
178	0x3d37c381	0.04486418
179	0x3dba0756	0.090834305
180	0xbc9971e7	-0.01873107
181	0x3c9df831	0.019283386
182	0x3e0cf1d1	0.1376412
183	0x3dc323b3	0.095282935
184	0x3e14a316	0.14515337
185	0x3d800ccb	0.0625244
186	0x3d9c4552	0.07630409
187	0x3c48cf14	0.0122564025
188	0xbd0e6a65	-0.034769434
189	0x3e3eb46e	0.18623516
190	0x3c4ac0d4	0.012375075
191	0xbe4380de	-0.19092128
192	0x3e1b2316	0.15150103
193	0x3c9aa735	0.018878559
194	0xbdfc7914	-0.12327781
195	0x3d89f6ed	0.067365505
196	0xbd550cbc	-0.052014098
197	0xbdf44395	-0.11926953
198	0xbdb30e67	-0.087429814
199	0x3cd6b4cf	0.026209263
200	0x3e0e697b	0.13907425
201	0xbe01e698	-0.12685621
202	0xbc134a73	-0.008989918
203	0x3e09930b	0.13434999
204	0xbe40db67	-0.18833695
205	0xbdba4bcb	-0.090964876
206	0x3d7d62ed	0.06186192
207	0x3d5c9dc4	0.053861395
208	0x3d2a859b	0.041631322
209	0xbdd2e13f	-0.102968685
210	0x3dcb9dcb	0.09942206
211	0x3d94fa49	0.072743006
212	0xbdc72e7d	-0.09725664
213	0x3db9d910	0.090746045
214	0x3c977f39	0.018493282
215	0xbe19320b	-0.14960496
216	0xbcacfcc4	-0.021116622
217	0x3dd5dbe2	0.1044233
218	0x3c9953b4	0.01871667
219	0xbd912d8d	-0.07088766
220	0x3c11eaf1	0.008906112
221	0xbb29538c	-0.0025837151
222	0xbd73238d	-0.059360076
223	0x3cea6f03	0.028617388
224	0xbd7dc4fc	-0.061955437
225	0x3e38e97f	0.18057822
226	0x3e21874b	0.15774266
227	0x3d155048	0.036453515
228	0x3e4731d6	0.19452605
229	0xbe0a1348	-0.13483918
230	0xbc78cdcc	-0.015185785
231	0x3e5ccf57	0.21563469
232	0xbdef1e36	-0.11675684
233	0xbc191e3b	-0.009345586
234	0x3d0f7543	0.03502394
235	0x3d9c90b8	0.076447904
236	0xbe20ec14	-0.15715057
237	0x3d7d5112	0.061844893
238	0x3ccc1d66	0.024916362
239	0xbdd23cfd	-0.10265539
240	0x3d8ba5b7	0.06818717
241	0x3d79d1f2	0.060991235
242	0xbda72e0a	-0.08163078
243	0xbde0dcb2	-0.10979594
244	0x3dc42adb	0.095784865
245	0x3df65e95	0.12029759
246	0xbe4c3d19	-0.19945182
247	0x3c4c483b	0.012468393
248	0x3d913053	0.07089295
249	0xbe0fe896	-0.14053568
250	0x3c95a923	0.018269127
251	0x3d7fcf0f	0.062453326
252	0xbd7f161b	-0.06227694
253	0xbcce4d9e	-0.025183495
254	0x3ca95bf9	0.020673739
255	0xbd73a1dd	-0.059480537

conv_blocks.3.bias f4 [32]
0	0xbcdebe06	-0.02719022
1	0xbc78d1b1	-0.015186713
2	0x3d42c961	0.04755533
3	0xbcc8a028	-0.024490431
4	0xbbacef22	-0.0052775303
5	0xbc7234e4	-0.014783118
6	0x3d7d1d9e	0.061795823
7	0x3dc540eb	0.09631523
8	0xbc708dd3	-0.014682251
9	0x3cdbbd2e	0.026823606
10	0xbcdef348	-0.027215615
11	0x3dbc1a91	0.09184755
12	0x3c226e70	0.009914026
13	0x3d4f20d2	0.05056841
14	0x3be5fb64	0.0070184935
15	0xbe6aa2b4	-0.22913629
16	0xbe0e87bc	-0.13918966
17	0x3d71600f	0.0589295
18	0x3cabb832	0.020961855
19	0xbdc38f54	-0.09548822
20	0x3c9439d4	0.01809398
21	0x3c852e86	0.016257536
22	0xbd9995a7	-0.07499247
23	0x3cf8c739	0.030368434
24	0xbea4febe	-0.32225603
25	0xbb3efa77	-0.0029140988
26	0xbdb263cf	-0.08710443
27	0xbd5522b6	-0.052035056
28	0xbcb0da8a	-0.021588583
29	0xbbc2abe9	-0.0059409034
30	0xbc0fc1d0	-0.008774236
31	0xbe063bc3	-0.13108735

conv_blocks.6.weight f4 [32]
0	0x3f90d5c8	1.1315241
1	0x3f9b3418	1.2125273
2	0x3f80f3c5	1.0074393
3	0x3f9b0625	1.211125
4	0x3fb9b07d	1.4506985
5	0x3f9dcb20	1.2327614
6	0x3fbaabca	1.4583676
7	0x3f9025b3	1.1261505
8	0x3fb1eea7	1.3900956
9	0x3f72915c	0.9475305
10	0x3f883285	1.0640417
11	0x3f7c13cf	0.98467726
12	0x3f817476	1.0113666
13	0x3f7ae7c2	0.98009884
14	0x3f79d9e1	0.9759808
15	0x3f852b57	1.0403851
16	0x3f6ea87f	0.93225855
17	0x3f60edc5	0.8786281
18	0x3fa9c6dc	1.3263812
19	0x3f62a608	0.88534594
20	0x3f69b60b	0.912934
21	0x3f816cb3	1.0111297
22	0x3fa5d9ad	1.2957054
23	0x3fac4164	1.3457456
24	0x3f8d8937	1.10575
25	0x3f8d3b17	1.1033658
26	0x3f5e7df2	0.8691093
27	0x3f64dbad	0.893977
28	0x3fa94201	1.3223268
29	0x3f971522	1.1803324
30	0x3fcb5e7f	1.5888213
31	0x3f7ec5c6	0.9952053

conv_blocks.6.bias f4 [32]
0	0xbcd13247	-0.02553667
1	0x3cf578b4	0.029964782
2	0xbd751d55	-0.059842426
3	0x3d1d43a2	0.038394578
4	0x3d17086d	0.03687327
5	0x3d3655d8	0.04451546
6	0xbc05e511	-0.0081722895
7	0x3daa3c5f	0.08312296
8	0xbc12f1b9	-0.008968764
9	0x3c0aa7ca	0.008462856
10	0x3d17f7dd	0.037101615
11	0xbd30ea99	-0.04319248
12	0xbcb12eaa	-0.021628696
13	0x3d97989b	0.07402154
14	0x3c4b1ef5	0.012397517
15	0x3dbffc00	0.09374237
16	0x3d057b95	0.03258856
17	0xbd8ae9a0	-0.06782842
18	0x3bf868dc	0.0075808596
19	0xbca888c9	-0.020573037
20	0x3c2bf3b8	0.010495119
21	0x3d3b79b9	0.04577038
22	0xbcd1b1e3	-0.025597518
23	0xbd2f11b3	-0.04274149
24	0xbc9f8319	-0.019471692
25	0x3cb3ae94	0.021933831
26	0x3de09551	0.1096598
27	0x3dafe648	0.085888445
28	0x3d430960	0.047616363
29	0x3c333b74	0.010939468
30	0xbc940f4b	-0.018073699
31	0xbc012243	-0.007881704

conv_blocks.6.running_mean f4 [32]
0	0x3cbc18bf	0.022961019
1	0x3d4ba336	0.049716197
2	0x3dab56eb	0.08366188
3	0x3d4cc6dc	0.049994335
4	0x3ced71de	0.02898496
5	0x3ca2003f	0.019775508
6	0x3d4e973c	0.050437197
7	0x3c8f80c3	0.017517453
8	0x3c87c6f6	0.016574364
9	0x3d52194c	0.051293656
10	0x3d9faef4	0.077970415
11	0xbc850932	-0.016239736
12	0x3d29af4b	0.041426938
13	0x3c638aa7	0.013888038
14	0x3d1f3eac	0.038878128
15	0xbc1bc814	-0.009508152
16	0x3bfd794e	0.007735408
17	0x3d0ed53c	0.034871325
18	0xbbbf7ef2	-0.0058439905
19	0x3c9492ea	0.01813646
20	0x3cd1b6ef	0.025599925
21	0x3c7f0c72	0.015566932
22	0x3afca2bb	0.0019274572
23	0xbba9798a	-0.0051719593
24	0xbbb420bb	-0.005497066
25	0x3cae491e	0.0212751
26	0x3d09cd8b	0.033643287
27	0x3d1749fa	0.036935784
28	0x3c2af5ad	0.01043455
29	0x3ca58817	0.020206494
30	0x3cbc0614	0.022952117
31	0x3d26435a	0.040591575

conv_blocks.6.running_var f4 [32]
0	0x3c9158e6	0.017742585
1	0x3cc11758	0.023570701
2	0x3d3a59c3	0.04549576
3	0x3cfda194	0.030960836
4	0x3c5478cf	0.012968256
5	0x3c4eae0b	0.012614737
6	0x3c18c261	0.009323687
7	0x3c9e8468	0.019350246
8	0x3c212355	0.009835084
9	0x3d016763	0.031592738
10	0x3d5184e4	0.051152125
11	0x3cc28c67	0.02374859
12	0x3d0b005b	0.033935886
13	0x3c1de3a7	0.009636796
14	0x3d12e633	0.035864066
15	0x3c6012a8	0.013676323
16	0x3c430acc	0.01190443
17	0x3d3843e1	0.04498661
18	0x3c22efc4	0.00994486
19	0x3c905113	0.017616784
20	0x3d043802	0.032279976
21	0x3c852db1	0.016257139
22	0x3c176fd1	0.009242968
23	0x3c394407	0.011307723
24	0x3d0998f1	0.033593122
25	0x3ca08d20	0.019598544
26	0x3d03a5f7	0.0321407
27	0x3cd667dc	0.02617257
28	0x3c681efc	0.0141675435
29	0x3c8b2b91	0.016988548
30	0x3c24aa8c	0.010050427
31	0x3d146579	0.036229584

conv_blocks.7.weight f4 [64, 32, 3, 3]
0	0x3b305def	0.0026911458
1	0x3c978dd1	0.01850024
2	0xbd7f0c3f	-0.06226754
3	0x3dd0b1da	0.101901725
4	0x3c921062	0.017830078
5	0xbca1e0cf	-0.019760517
6	0x3d8ae85c	0.067826
7	0x3d07c600	0.033147812
8	0xbc8ca9c6	-0.017170798
9	0xbd682b44	-0.056681886
10	0x3bf4b686	0.0074680476
11	0xbcbc6129	-0.022995548
12	0xbe1dc76c	-0.15408105
13	0xbe1bcd38	-0.15215003
14	0xbd253cb0	-0.04034108
15	0x3e047e89	0.12938894
16	0x3dd7cf44	0.1053758
17	0x3d52e9ae	0.051492386
18	0xbd7ba06a	-0.06143228
19	0x3c995fbf	0.018722413
20	0x3db1ea0e	0.086872205
21	0xbe532be7	-0.20622216
22	0xbe152c32	-0.1456764
23	0xbde5d6b9	-0.11222596
24	0x3e5af69c	0.21383137
25	0x3dcad871	0.09904564
26	0x3ddc1280	0.10745716
27	0xbc0addaa	-0.0084757
28	0x3c82de8b	0.015975257
29	0x3ce590d8	0.028023168
30	0x3dee6b7c	0.11641595
31	0x3b2980b7	0.0025864074
32	0xbcd3470d	-0.025790716
33	0xbe0ee10f	-0.1395304
34	0xbe0de519	-0.13856925
35	0xbd92a2c5	-0.07159952
36	0x3db1d338	0.08682865
37	0x3db6d8e6	0.08928089
38	0xbc403edf	-0.01173374
39	0x3e04660e	0.12929556
40	0x3de83270	0.11337745
41	0x3d39e818	0.045387357
42	0xbe7f1be3	-0.24912982
43	0xbe7f840d	-0.24952717
44	0xbdd983a9	-0.10620815
45	0xbe0e99d0	-0.13925862
46	0xbd8b2d25	-0.0679572
47	0xbbfd2367	-0.0077251676
48	0xbb86cba4	-0.0041136313
49	0x3dec7e74	0.115475565
50	0x3cc53b0b	0.024076005
51	0x3e083833	0.13302688
52	0x3e35db98	0.1775955
53	0xbc65ccfe	-0.014025925
54	0xbdccc3b7	-0.09998267
55	0xbdc01588	-0.09379107
56	0xbd425e68	-0.047453314
57	0x3debf204	0.1152077
58	0x3dbd7394	0.092505604
59	0x3c8db3ae	0.017297592
60	0x3c8695bf	0.016428826
61	0xbd8af4a9	-0.067849465
62	0x3cfda3b9	0.030961858
63	0xbd9d1b8c	-0.0767127
64	0xbcebc8bc	-0.028782241
65	0xbdc0c5bf	-0.09412717
66	0x3e2d222c	0.16907567
67	0x3db0624f	0.08612501
68	0x3d0c15cd	0.03420048
69	0xbc371054	-0.0111733265
70	0xbced5ed1	-0.028975876
71	0x3c0cd4e2	0.008595677
72	0x3e4a8cdb	0.19780295
73	0x3d6276a2	0.05528892
74	0x3d3d9f7c	0.046294674
75	0x3ca5d047	0.020240916
76	0x3dbf5de9	0.09344084
77	0x3bf0673a	0.0073365243
78	0xbe594924	-0.21219307
79	0xbe7787a1	-0.24172832
80	0xbdf07bff	-0.117424004
81	0x3d6d2959	0.05790076
82	0x3cd2bfa3	0.025726145
83	0x3d77ae82	0.060469158
84	0xbdce0c0e	-0.10060893
85	0xbd998046	-0.07495169
86	0xbda057c5	-0.07829241
87	0x3ddadd6c	0.10686764
88	0x3d852481	0.06501103
89	0xbd0ad40d	-0.033893634
90	0xbd9d9d0f	-0.07695972
91	0xbdbecbd4	-0.09316221
92	0x3d16942f	0.036762413
93	0xbd9a0a01	-0.07521439
94	0xbcd1f807	-0.025630964
95	0xbd2675cc	-0.040639684
96	0x3deb6f93	0.114958905
97	0x3da1505a	0.07876654
98	0x3d2f647c	0.04282044
99	0xbda23ac3	-0.07921364
100	0x3b702b33	0.0036646842
101	0xbdc7188e	-0.0972148
102	0x3e1aacd1	0.15104987
103	0x3e15629e	0.145884
104	0x3d6b0308	0.057375938
105	0xbda7837e	-0.08179377
106	0xbd18c3f8	-0.037296265
107	0xbd3ed926	-0.046593808
108	0xbdd3950d	-0.103311636
109	0xbd9f2b44	-0.07771924
110	0xbe2281fe	-0.158699
111	0x3e0fc3a0	0.14039469
112	0x3e3951e8	0.18097651
113	0x3d504d38	0.05085489
114	0xbd9566b4	-0.0729498
115	0xbcea9e97	-0.028640075
116	0x3c2b292d	0.010446829
117	0xbcba6e66	-0.02275772
118	0x3b98d784	0.0046643633
119	0xbd0d9ebe	-0.034575216
120	0x3e276a39	0.16349114
121	0x3e10b466	0.14131317
122	0x3d8a34ce	0.06748353
123	0xbde6e96f	-0.11274993
124	0xbe02074c	-0.12698096
125	0xbcd9948d	-0.026560092
126	0xbde32f69	-0.11093027
127	0xbd2a025b	-0.041506153
128	0x3c67da12	0.014151113
129	0xbd8fd4b7	-0.07022994
130	0xbcafc83c	-0.021457784
131	0xbc45c212	-0.012070196
132	0x3d9cb8d7	0.07652443
133	0x3db60438	0.088875234
134	0x3d8eb2e5	0.06967715
135	0xbe328320	-0.17432833
136	0xbe06894d	-0.13138314
137	0xbd84222b	-0.064518295
138	0xbc1321a3	-0.008980188
139	0xbcc2bbdf	-0.023771225
140	0x3d4ed521	0.050496224
141	0x3e02cc55	0.12773259
142	0x3db21fc8	0.08697468
143	0x3e0900a6	0.13379154
144	0xbd516092	-0.051117487
145	0x3a94220d	0.0011301652
146	0x3cf3885d	0.029728109
147	0xbdb3c85e	-0.087784514
148	0xbcb15d95	-0.021651069
149	0xbc0792c8	-0.0082747415
150	0x3dade55d	0.08491013
151	0x3d1113ce	0.035419278
152	0x3c238c5a	0.009982193
153	0xbd8b12fc	-0.0679073
154	0xbc3eb4b8	-0.011639766
155	0xbb047d77	-0.0020216384
156	0x3c59f850	0.013303831
157	0x3d10a426	0.035312794
158	0x3d1a2e96	0.037642084
159	0x3d146911	0.03623301
160	0xbb84808f	-0.0040436457
161	0xbc250eb5	-0.010074307
162	0x3d8f3803	0.06993105
163	0x3ced0408	0.028932586
164	0x3cebe2db	0.028794697
165	0xbddbdabc	-0.1073508
166	0xbd9831e6	-0.07431392
167	0xbd66defa	-0.05636499
168	0x3d8124db	0.06305858
169	0x3d31193a	0.04323695
170	0x3b6f76c7	0.0036539303
171	0x3d0faa67	0.035074618
172	0x3d43d1a7	0.047807362
173	0xbd8caf5f	-0.06869387
174	0x3cde0783	0.027103191
175	0x3da3c233	0.07996025
176	0x3c0d80a9	0.008636632
177	0xbd61ba5c	-0.055109367
178	0xbc545c2b	-0.012961428
179	0xbd5b0102	-0.053467758
180	0xbd967253	-0.07346024
181	0xbd273157	-0.04081854
182	0xbd28f2f2	-0.041247316
183	0xbd830b52	-0.063986436
184	0xbd9a55d9	-0.075359054
185	0x3c85f041	0.016349914
186	0x3d761cd7	0.060086098
187	0x3daae86b	0.083451115
188	0x3ddab917	0.10679834
189	0xbcd4bd72	-0.02596924
190	0x3d38b6f4	0.045096353
191	0x3d22bf38	0.03973314
192	0xbe536d46	-0.20647153
193	0xbe499784	-0.19686705
194	0xbe0d0318	-0.13770711
195	0x3e751cbe	0.23936746
196	0x3e0e302d	0.13885565
197	0x3e157898	0.14596784
198	0x3c99c4b6	0.018770557
199	0xbc601cc9	-0.013678738
200	0xbd658725	-0.056037087
201	0xbcf0b3ab	-0.029382547
202	0x3c7e62df	0.015526502
203	0x3d1d862c	0.038458034
204	0xbe16e230	-0.14734721
205	0xbc879b5f	-0.016553579
206	0x3d7cfffe	0.06176757
207	0xbdde5cc3	-0.10857537
208	0x3c68bda3	0.014205369
209	0xbd865f2a	-0.0656112
210	0x3de3aff4	0.11117545
211	0x3cd5925d	0.026070768
212	0xbdb84cd3	-0.08999028
213	0x3d8c6080	0.068543434
214	0x3c89a9fb	0.016804686
215	0x3d4b61e7	0.049653914
216	0x3d0d2cca	0.034466542
217	0x3dbe9320	0.093054056
218	0x3d4c2308	0.049838096
219	0xbde4ea6f	-0.11177527
220	0xbcfc30ba	-0.030784953
221	0xbbcac127	-0.0061875763
222	0xbd29dd6a	-0.041470923
223	0xbd3576fa	-0.044302918
224	0xbbe98f67	-0.0071276906
225	0xbe501889	-0.2032186
226	0xbe21e94a	-0.15811649
227	0xbcaedc86	-0.021345388
228	0xbd64879b	-0.055793386
229	0xbd86bfd5	-0.06579558
230	0xbdd6a61f	-0.10480904
231	0x3ea0556b	0.3131517
232	0x3e2651c8	0.16242135
233	0x3e09a74a	0.13442722
234	0xb82ae47b	-4.0743947e-05
235	0xbc7afcbb	-0.015319045
236	0xbb8a2256	-0.004215519
237	0xbd1e0fbd	-0.038589228
238	0xbddaca5d	-0.10683129
239	0xbd591c1c	-0.053005323
240	0x3dc4b9a2	0.09605719
241	0x3c66b7f0	0.01408194
242	0x3d91271e	0.07087539
243	0xbd406e11	-0.046979968
244	0x3d3d2b47	0.04618385
245	0xbdd975d0	-0.10618174
246	0xbd8fae53	-0.070156716
247	0xbdd49659	-0.10380239
248	0xbd4c7b25	-0.049922127
249	0x3df1ec0b	0.118126
250	0x3dda2c8a	0.106530264
251	0x3e0b1a83	0.13584332
252	0xbe5ea5b5	-0.217429
253	0xbe7bd922	-0.24594548
254	0xbda77dbd	-0.081782795
255	0xbe05c1b8	-0.13062179

conv_blocks.7.bias f4 [64]
0	0xbd572ec4	-0.052534834
1	0xbdf28997	-0.118426494
2	0xbd663567	-0.056203272
3	0xba590a8c	-0.00082794647
4	0xbd7bad01	-0.061444286
5	0x3d48133c	0.04884647
6	0xbd695ed0	-0.056975186
7	0xbdf70f58	-0.120634735
8	0xbc9946a6	-0.018710446
9	0xbd35b749	-0.044364247
10	0xbe86aced	-0.26303807
11	0xbe0e1a4e	-0.13877222
12	0xbe0f376d	-0.13985987
13	0xbdd39fd1	-0.10333217
14	0xbdd21390	-0.102576375
15	0xbdae9e9f	-0.08526348
16	0xbe3474f2	-0.17622736
17	0xbdba20cc	-0.09088287
18	0xbcfd4bc2	-0.030919913
19	0xbe3f30ef	-0.1867101
20	0x3cea96ba	0.028636325
21	0x3c04b0b1	0.008098767
22	0xbda9d30f	-0.08292209
23	0xbd9e04ef	-0.07715785
24	0xbe93d78b	-0.28875384
25	0xbbb0b5a9	-0.0053927493
26	0xbd15d236	-0.036577426
27	0xbd9b922f	-0.07596242
28	0xbd64da74	-0.055872396
29	0x3c8cc4ca	0.01718368
30	0xbdc1625e	-0.0944259
31	0xbdb8a481	-0.09015752
32	0x3b2ee845	0.0026688736
33	0xbd09820b	-0.033571284
34	0xbe01ab1f	-0.12662934
35	0xbd0363bb	-0.032077532
36	0xbdc0e08d	-0.0941783
37	0x3d1b3a91	0.03789765
38	0xbd529e10	-0.05142027
39	0xbe0538d6	-0.13009962
40	0xbe319dd2	-0.1734536
41	0xbdbe7630	-0.09299886
42	0xbdd58203	-0.104251884
43	0xbc87eade	-0.016591486
44	0xbd76a770	-0.060218275
45	0xbd73c7af	-0.059516605
46	0xbdf8f051	-0.12155212
47	0xbd305412	-0.043048926
48	0xbd9cd416	-0.0765764
49	0xbdb22387	-0.086981826
50	0x3be76201	0.0070612435
51	0xbe1856fb	-0.1487693
52	0xbd959bf3	-0.073051356
53	0xbdda761c	-0.10667059
54	0xbd03e236	-0.032198153
55	0x3d7d1ab9	0.061793063
56	0xbe1f78c6	-0.15573415
57	0xbdfe5f62	-0.124205366
58	0xbe057e57	-0.13036476
59	0x3d75f31a	0.060046293
60	0xbd9c9f6d	-0.076475956
61	0xbe371bad	-0.17881651
62	0xbdc2677a	-0.09492393
63	0xbde6917c	-0.11258218

conv_blocks.10.weight f4 [64]
0	0x3fa1659a	1.2609131
1	0x3faffb1e	1.374851
2	0x3f73cc08	0.952332
3	0x3f54ca3a	0.83121073
4	0x3f91fdee	1.1405618
5	0x3f79d046	0.97583425
6	0x3f8509ec	1.0393653
7	0x3f43bef7	0.76463264
8	0x3f813387	1.009385
9	0x3f7583d2	0.95904267
10	0x3f77380f	0.96569914
11	0x3f9c4ee5	1.2211577
12	0x3f43587b	0.76306885
13	0x3f98c90e	1.1936357
14	0x3f845bc9	1.0340511
15	0x3f50c3d6	0.8154882
16	0x3f9d9909	1.2312328
17	0x3f900e6a	1.1254399
18	0x3f865af7	1.049651
19	0x3f8478cb	1.0349363
20	0x3f74dfcb	0.9565398
21	0x3f7ab0e3	0.9792616
22	0x3f9e7d7c	1.2382045
23	0x3f6fccd4	0.9367192
24	0x3f8a3a38	1.0799017
25	0x3f5ef87d	0.87097913
26	0x3f86f11a	1.0542328
27	0x3f5eb696	0.86997354
28	0x3f92eaad	1.1477867
29	0x3f60b17f	0.8777084
30	0x3f85a024	1.0439496
31	0x3f7cf770	0.9881506
32	0x3f680021	0.90625197
33	0x3f9f28ce	1.2434328
34	0x3f8a8921	1.0823098
35	0x3f4e8eaa	0.8068644
36	0x3f6e5493	0.930978
37	0x3f6443e7	0.8916611
38	0x3f835071	1.0258924
39	0x3f755e2e	0.9584683
40	0x3f893639	1.0719672
41	0x3f9434ae	1.1578577
42	0x3f84f314	1.0386682
43	0x3f4fb684	0.8113787
44	0x3f9bcdd6	1.2172191
45	0x3f91ae73	1.1381363
46	0x3f8ee0a4	1.1162305
47	0x3f663138	0.8991885
48	0x3f7ada2b	0.9798915
49	0x3fc64656	1.5490215
50	0x3f827dd5	1.0194651
51	0x3f7db07e	0.9909743
52	0x3f897031	1.0737363
53	0x3f9db414	1.232058
54	0x3f6cda1c	0.9252031
55	0x3f6de10c	0.9292152
56	0x3f6f5e3a	0.93503153
57	0x3fb5811f	1.418003
58	0x3f6ee634	0.9332001
59	0x3f6789b6	0.90444505
60	0x3f7c7e01	0.98629767
61	0x3f5d58f0	0.8646383
62	0x3faaf5b0	1.3356228
63	0x3fa86bf8	1.315795

conv_blocks.10.bias f4 [64]
0	0xbd0243a0	-0.031802773
1	0x3df3a225	0.11896161
2	0x3dd1795f	0.10228228
3	0x3dcd10cf	0.100129716
4	0xbb706d55	-0.003668626
5	0x3c6844de	0.0141765755
6	0xbdff3ab1	-0.12462366
7	0x3e0e8dc0	0.13921261
8	0x3d4d3067	0.05009499
9	0x3da8cddf	0.08242392
10	0xbd94df3f	-0.07269143
11	0xbd0eea33	-0.03489132
12	0x3db287c2	0.087173
13	0x3dd21473	0.10257807
14	0x3e01b7e3	0.12667803
15	0x3e180182	0.14844325
16	0xbcd7b953	-0.026333487
17	0x3dfec063	0.124390386
18	0x3cf62a06	0.030049335
19	0x3d99d079	0.07510466
20	0x3dbd48df	0.09242415
21	0x3d4e22be	0.0503261
22	0xbd7ab8a6	-0.06121125
23	0x3df5948f	0.11991226
24	0x3d4b4c8b	0.049633544
25	0x3d690516	0.056889616
26	0x3cb6a4ee	0.022295441
27	0x3df26608	0.11835867
28	0x3da50a89	0.0805865
29	0x3d4ca936	0.04996606
30	0x3d75eb20	0.060038686
31	0x3d840eca	0.06448133
32	0x3aa990eb	0.0012936866
33	0x3dd66879	0.10469145
34	0x3e1cd77a	0.15316573
35	0x3d1893f1	0.037250463
36	0x3db31ffc	0.08746335
37	0xbdaa1fdc	-0.08306858
38	0x3cd3529f	0.025796233
39	0xbdce7274	-0.10080424
40	0x3d7dfa0a	0.062006034
41	0x3ca7fb54	0.020505585
42	0x3c3123ec	0.010811787
43	0x3dc42cbe	0.095788464
44	0x3dcf6c10	0.10128033
45	0x3c40cf28	0.01176814
46	0x3dcbd0e9	0.09951956
47	0x3d273c1b	0.040828805
48	0x3df2a5b4	0.118480116
49	0x3e22807c	0.15869325
50	0x3da7beee	0.08190714
51	0x3e323abf	0.17405222
52	0xbe059bfd	-0.13047786
53	0x3dcd1d2a	0.10015328
54	0x3ddb0979	0.10695166
55	0x3d2cf4eb	0.04222576
56	0xbd5046fa	-0.05084894
57	0x3db4439b	0.08801957
58	0x3e519c9b	0.20469896
59	0x3d654274	0.055971578
60	0x3d7d1256	0.061785065
61	0x3e3d72c8	0.18500817
62	0xbb01f9c5	-0.0019832712
63	0xbcd9e94c	-0.026600502

conv_blocks.10.running_mean f4 [64]
0	0x3d52e5a0	0.05148852
1	0x3c2e6385	0.0106438445
2	0x3d9969cd	0.07490883
3	0x3dc45b25	0.09587697
4	0x3be1fd12	0.0068966234
5	0x3e01d5b4	0.12679178
6	0x3d99d4d5	0.075112976
7	0x3ddfed3e	0.10933922
8	0x3df2d310	0.11856663
9	0x3d9d6a1c	0.076862544
10	0x3ccebe09	0.0252371
11	0x3bb7dd38	0.005611088
12	0x3da541d5	0.08069197
13	0x3d8ab249	0.067722864
14	0x3c07daa9	0.008291879
15	0x3e4e6f6c	0.20159692
16	0xbc504a1d	-0.0127129825
17	0x3d6a0f14	0.057143286
18	0x3d4c577b	0.049888115
19	0x3d291e69	0.041288767
20	0x3d8ee94c	0.069780916
21	0x3d051ee5	0.032500166
22	0x3bece278	0.0072291456
23	0x3da231cf	0.079196565
24	0x3d683537	0.056691375
25	0x3ccc8134	0.024963953
26	0x3d0e4c44	0.0347407
27	0x3db77056	0.08956973
28	0x3d9c8c97	0.07644003
29	0x3da2c4e1	0.07947708
30	0x3d914ee1	0.07095123
31	0x3b395bd6	0.0028283498
32	0x3ded6735	0.11591951
33	0x3d78069a	0.06055317
34	0x3d7fee3b	0.062483054
35	0x3e060c17	0.1309055
36	0x3d52d0f3	0.0514688
37	0x3df0f234	0.117649466
38	0x3ddb68f3	0.10713377
39	0x3db75781	0.08952237
40	0x3bf968f1	0.007611387
41	0xbc56ab6d	-0.0131023945
42	0x3d82db03	0.063894294
43	0x3cd087d5	0.025455395
44	0x3dcc82ff	0.09985923
45	0x3d0daf2e	0.034590892
46	0x3d04a54b	0.0323842
47	0x3d3f47d4	0.04669936
48	0x3d31c2b9	0.043398593
49	0x3c8b5f3a	0.017013181
50	0x3dd1561c	0.10221502
51	0x3da32100	0.079652786
52	0x3cf2f832	0.029659364
53	0x3cf8f344	0.030389436
54	0x3d48d84f	0.049034413
55	0x3e159445	0.14607342
56	0x3d916a7b	0.07100388
57	0x3d07cbf9	0.033153508
58	0x3d557ebc	0.052122816
59	0x3e1bd894	0.15219337
60	0x3cbdb5c0	0.023157954
61	0x3d071b6e	0.032985143
62	0x3d4ee84e	0.05051451
63	0x3d39e3c5	0.045383234

conv_blocks.10.running_var f4 [64]
0	0x3d637ed1	0.055540863
1	0x3d3a445c	0.04547535
2	0x3dc0b108	0.09408766
3	0x3d9a5119	0.075349994
4	0x3ce26844	0.027637608
5	0x3e0bfde7	0.13671075
6	0x3d99eb5a	0.07515593
7	0x3e3557ba	0.17709246
8	0x3dbae6f7	0.09126084
9	0x3d995342	0.07486583
10	0x3dc57f75	0.09643451
11	0x3d557ae3	0.052119147
12	0x3e6f45c3	0.23366456
13	0x3d8e3907	0.06944471
14	0x3d42b09a	0.0475317
15	0x3f043a3e	0.5165137
16	0x3db177bb	0.08665415
17	0x3dbcc6f6	0.09217636
18	0x3d95e293	0.07318606
19	0x3dccdb74	0.10002795
20	0x3d701132	0.05861015
21	0x3d1b62fe	0.037936203
22	0x3d2a9ad5	0.041651566
23	0x3e05fd71	0.13084961
24	0x3e09e8a3	0.1346765
25	0x3e00d518	0.12581289
26	0x3d841642	0.06449558
27	0x3e00a69a	0.12563553
28	0x3d9c096c	0.076189846
29	0x3da9290a	0.08259781
30	0x3da043cf	0.078254335
31	0x3d2014b1	0.039082233
32	0x3dc70ac9	0.09718854
33	0x3d83cf89	0.064360686
34	0x3d7d95f1	0.061910573
35	0x3e407b67	0.18797074
36	0x3db764eb	0.089547954
37	0x3dee9f10	0.116514325
38	0x3db447bc	0.08802745
39	0x3de5aa16	0.11214082
40	0x3d6b7047	0.057480123
41	0x3d53ce43	0.05171038
42	0x3dfe1493	0.12406268
43	0x3e3bb6e5	0.18331487
44	0x3dd56f90	0.104216695
45	0x3da3e1da	0.08002062
46	0x3d7e8e32	0.062147327
47	0x3dcd9069	0.1003731
48	0x3db75e8e	0.08953582
49	0x3d455f4d	0.04818659
50	0x3dc0215c	0.09381363
51	0x3e184559	0.14870204
52	0x3d80ea77	0.062947206
53	0x3d86ee4e	0.06588422
54	0x3d8c974b	0.06864794
55	0x3da6ec3f	0.08150529
56	0x3dab0244	0.083500415
57	0x3d75c825	0.060005326
58	0x3d90ed0c	0.07076463
59	0x3e06675b	0.13125364
60	0x3d056aba	0.032572486
61	0x3dcaebeb	0.09908279
62	0x3dc7d184	0.09756759
63	0x3d9f2222	0.07770182

conv_blocks.11.weight f4 [128, 64, 3, 3]
0	0xbd66132a	-0.05617062
1	0x3c182630	0.009286448
2	0x3d7c788a	0.061638393
3	0xbb18d97b	-0.0023322988
4	0xbd2673e3	-0.040637862
5	0xbd93d75b	-0.0721881
6	0x3d9f723b	0.077854596
7	0x3ddd53cd	0.10806999
8	0x3d98437a	0.07434745
9	0xbac69d8e	-0.0015153156
10	0x3de37569	0.111063786
11	0xbb54e2e8	-0.003248388
12	0xbcadde2d	-0.021224106
13	0xbd15602e	-0.036468677
14	0x3c9f32b3	0.019433355
15	0xbde4a4b7	-0.11164229
16	0xbdd7e5b3	-0.105418585
17	0x3ba2854b	0.0049597374
18	0xbe1f9276	-0.15583214
19	0xbd7adb75	-0.061244447
20	0xbd5ebac0	-0.054377317
21	0xbdea2271	-0.114323504
22	0xbd48fb22	-0.049067624
23	0xbd58baf7	-0.05291268
24	0x3d55a2b1	0.052157108
25	0x3ba9b000	0.0051784515
26	0x3d64070a	0.055670775
27	0xbe2883c8	-0.1645652
28	0xbd9b640c	-0.07587442
29	0xbd7db3bd	-0.06193899
30	0xbe6639eb	-0.22483031
31	0xbdcc4193	-0.09973445
32	0xbd0def8d	-0.03465228
33	0xbe3fc7ec	-0.18728608
34	0xbdf04e99	-0.11733741
35	0x3d886309	0.066595145
36	0xbde265da	-0.11054583
37	0xbb98db9d	-0.004664852
38	0xbd2a3a73	-0.041559648
39	0xbe67adc9	-0.22624888
40	0xbd9e2ec7	-0.07723766
41	0xbb142f7a	-0.0022611306
42	0x3c0f7742	0.008756461
43	0x3c953fb5	0.018218854
44	0x3d01615e	0.031586997
45	0xbd23d228	-0.039995342
46	0x3d25c729	0.040473137
47	0x3d978e8d	0.07400236
48	0xbc0729d7	-0.0082497215
49	0xbc5812d5	-0.013188084
50	0x3c8bee78	0.017081484
51	0x3d6ec543	0.058293592
52	0xbc8ab945	-0.016934047
53	0x3cf9a3be	0.030473586
54	0xbd4d4bd7	-0.050121155
55	0xbdef3b93	-0.11681285
56	0xbd7167ab	-0.058936756
57	0x3d0c2c52	0.034221955
58	0x3b7fa432	0.003900778
59	0x3c510f4a	0.012759993
60	0xbd93af49	-0.07211167
61	0x3cc00c09	0.023443239
62	0x3d817d1e	0.06322692
63	0xbde28d99	-0.11062164
64	0xbdae3395	-0.08505932
65	0xbc5f0656	-0.01361235
66	0xbe311f98	-0.17297208
67	0xbe4d6eba	-0.2006177
68	0xbd899b85	-0.06719116
69	0xbdb75b9c	-0.0895302
70	0xbdbb7806	-0.09153752
71	0x3d93530f	0.071935765
72	0xbe8b8f57	-0.27257797
73	0xbde875df	-0.11350607
74	0xbd3988b2	-0.04529638
75	0xbe99c4c9	-0.30032948
76	0xbce88dd7	-0.028387947
77	0xbd843c07	-0.06456762
78	0xbe122ce0	-0.14274931
79	0xbdd230d7	-0.10263222
80	0xbd63f431	-0.0556528
81	0xbe056ab5	-0.13028987
82	0xbd86ca2b	-0.06581529
83	0x3d8d8a93	0.069111966
84	0xbdaf15a6	-0.08549051
85	0xbb2fb54c	-0.0026810942
86	0x3d3433ee	0.043994837
87	0xbea0c93a	-0.31403524
88	0xbe02bab2	-0.12766531
89	0xbd29c4e5	-0.04144754
90	0xbcf134ce	-0.029444125
91	0x3cde0538	0.027102098
92	0xbdd66934	-0.10469285
93	0xbe540aa1	-0.2070718
94	0xbe11cd15	-0.14238389
95	0xbd85c305	-0.06531338
96	0xbe4ff9f8	-0.203102
97	0xbdd5fd8a	-0.10448749
98	0xbdd9b535	-0.106302656
99	0x3e4790e9	0.19488873
100	0x3d854e5b	0.06509086
101	0xbd9eebb2	-0.07759799
102	0x3deeb346	0.116552874
103	0x3dd76ff5	0.10519401
104	0x3d9d7cef	0.07689845
105	0x3db63611	0.08897031
106	0x3c84b8d1	0.016201409
107	0x3cef7e02	0.02923489
108	0xbec2c346	-0.38039607
109	0xbea3ab30	-0.31966543
110	0xbd924c98	-0.07143515
111	0xbe902cdb	-0.28159222
112	0xbea0b34f	-0.31386802
113	0xbda5a9e7	-0.08089047
114	0xbe919919	-0.28437117
115	0xbe14d27a	-0.14533415
116	0xbda1588b	-0.07878216
117	0x3cf2e702	0.029651169
118	0x3d545953	0.051843
119	0xba06b6a5	-0.00051389105
120	0xbcb6c169	-0.022309022
121	0x3c74b0fd	0.014934775
122	0xbccb968e	-0.024852064
123	0x3d391142	0.045182474
124	0x3cf7e630	0.03026113
125	0x3d6fbcb9	0.05852959
126	0x3c942c05	0.018087396
127	0x3d498c18	0.04920587
128	0x3c74c942	0.014940562
129	0xbcbccc63	-0.023046678
130	0xbd224ae4	-0.039622203
131	0xbced52ca	-0.028970141
132	0xbc84b0be	-0.016197558
133	0xbde0a592	-0.1096908
134	0x3ccb33dd	0.024805004
135	0xbe434b2a	-0.19071642
136	0xbdad0371	-0.08447922
137	0xba385ff9	-0.0007033344
138	0xbea067fe	-0.3132934
139	0xbe3a1f64	-0.18176037
140	0xbdc55683	-0.096356414
141	0xbe418978	-0.18900096
142	0xbd2738f3	-0.040825795
143	0xbcd2e7e1	-0.025745334
144	0xbe6d072c	-0.23147267
145	0xbc265654	-0.010152418
146	0xbdbe0726	-0.09278707
147	0xbe93ce60	-0.2886839
148	0xbc07e111	-0.008293406
149	0xbdd04323	-0.10169055
150	0xbe0dc3a2	-0.13844159
151	0xbcccdb68	-0.025006965
152	0xbcf4edf6	-0.029898625
153	0xbddb3a11	-0.10704435
154	0x3d50d2e4	0.05098237
155	0x3d17ded8	0.037077755
156	0xbe432b27	-0.1905943
157	0xbea0811e	-0.3134851
158	0xbe1bb09c	-0.1520409
159	0xbdacdf93	-0.08441081
160	0xbc80afac	-0.015708767
161	0xbc676b1d	-0.014124659
162	0x3d497933	0.04918785
163	0x3c2b249e	0.010445742
164	0xbc8b6c2b	-0.017019352
165	0x3d131237	0.035906043
166	0x3dc7f669	0.09763796
167	0xbd4b14b4	-0.04958029
168	0xbdeced23	-0.11568668
169	0xbdff2039	-0.12457318
170	0xbd784427	-0.06061187
171	0xbdbd09f1	-0.09230412
172	0x3c7c3fa6	0.015396034
173	0xbd2d7017	-0.042343225
174	0xbe151de4	-0.14562184
175	0xbd1a921a	-0.03773699
176	0x39b948bd	0.00035340144
177	0xbe3b2fd0	-0.18279958
178	0xbda07871	-0.078354724
179	0xbdde3cdc	-0.10851452
180	0x3e12e207	0.14344035
181	0x3d1b0602	0.037847526
182	0xbd38f7e2	-0.045158274
183	0x3e4401c4	0.19141299
184	0x3c125f5b	0.008933867
185	0xbd5d1e35	-0.053983886
186	0x3d5ef733	0.054434966
187	0xbd5ec28e	-0.05438476
188	0xbc6b0d37	-0.014346412
189	0x3b2f2df4	0.002673027
190	0x3d3ff9c3	0.04686905
191	0x3da003a2	0.07813193
192	0xbd63c151	-0.055604283
193	0x3b307607	0.0026925819
194	0xbdb44cd6	-0.08803718
195	0x3d529932	0.05141563
196	0x3dec77a2	0.11546256
197	0x3c4f1411	0.012639062
198	0x3d819076	0.06326382
199	0xbc12065a	-0.008912647
200	0xbafe697f	-0.0019410102
201	0x3d5755fb	0.05257223
202	0xbc9c744d	-0.019098425
203	0x36c23da0	5.7888246e-06
204	0x3cc35bbc	0.023847453
205	0xbde6f3b1	-0.11276949
206	0xbd94982a	-0.072555855
207	0xbe48ceca	-0.19610134
208	0xbe1c2d80	-0.15251732
209	0xbe1cf98d	-0.15329571
210	0xbe81409f	-0.25244614
211	0xbd98a6d3	-0.07453694
212	0xbd878a10	-0.0661813
213	0xbe4f2d13	-0.20232038
214	0xbdf010d0	-0.11721957
215	0xbc752262	-0.014961811
216	0xbb947fa9	-0.00453182
217	0xbda2da54	-0.07951799
218	0xbd84cabc	-0.06483981
219	0xbd3892c2	-0.045061834
220	0xbd82dc46	-0.0638967
221	0x3ac2441a	0.0014821321
222	0xbbbad112	-0.0057011927
223	0xbc651824	-0.013982806
224	0x3a66378f	0.00087820826
225	0x3c880698	0.016604707
226	0x3d0e924b	0.034807485
227	0xbbb134f4	-0.005407924
228	0xbe21a6e7	-0.15786324
229	0xbc5fc226	-0.013657128
230	0x3ccb2522	0.02479798
231	0xbe07e6b5	-0.13271601
232	0xbce8fb99	-0.028440284
233	0xbcfa3d5d	-0.030546838
234	0x3db1990f	0.08671772
235	0x3d45b8cf	0.04827195
236	0x3d3f1095	0.046646673
237	0xbdd08b1c	-0.10182783
238	0xba75354f	-0.0009353952
239	0x3d5bab9e	0.053630464
240	0x3da0e14d	0.07855473
241	0x3ddb8caf	0.10720193
242	0xbd1c67d9	-0.038184974
243	0xbb746992	-0.003729437
244	0x3d6d22f2	0.057894655
245	0xbd2e6de2	-0.04258526
246	0xbe0c03ce	-0.13673326
247	0xbd45560b	-0.04817776
248	0xbd859c79	-0.065239854
249	0xbdcefba5	-0.10106591
250	0x3d4cb0ca	0.049973287
251	0xbd05213d	-0.0325024
252	0x3dd77ce7	0.1052187
253	0x3dc0a1c2	0.09405853
254	0x3d874fa4	0.06606987
255	0xbe44258a	-0.19154945

conv_blocks.11.bias f4 [128]
0	0xbdce2387	-0.1006537
1	0xbd4f7f66	-0.050658606
2	0xbd741f62	-0.05960024
3	0xbb6bbb23	-0.0035969696
4	0xbd0a2b61	-0.033732776
5	0xbd11a21e	-0.035554998
6	0x3d3bed0a	0.045880355
7	0xbce8b250	-0.028405339
8	0xbe4665cd	-0.19374771
9	0xbd3ec435	-0.046573836
10	0xbe0ea517	-0.13930164
11	0xbd96e4a5	-0.07367829
12	0x3ba94632	0.0051658386
13	0xbe3ce10f	-0.18445228
14	0xbdd3e670	-0.10346687
15	0x3c614085	0.013748293
16	0xbdb199fc	-0.08671948
17	0xbca9d324	-0.020730563
18	0xbdf5f3d0	-0.12009394
19	0xbe0bdf96	-0.1365951
20	0xbe22f97b	-0.15915482
21	0xbd8dae07	-0.06917959
22	0xbd9ac9df	-0.07558035
23	0xbd8152fd	-0.06314657
24	0x3d4f2937	0.050576415
25	0xbd28ad7b	-0.04118107
26	0x3c18f7a4	0.009336386
27	0xbc701186	-0.014652615
28	0xbd5093a7	-0.050922062
29	0xbdbd1e71	-0.09234322
30	0x3c8a1b26	0.016858649
31	0xbde209e4	-0.11037043
32	0xbc57b3ad	-0.013165397
33	0xbde184f6	-0.110116884
34	0xbd3351c2	-0.043779142
35	0x3a91f9f1	0.001113711
36	0xbdbe32c9	-0.0928703
37	0x3e7ca0e9	0.24670757
38	0x3cbc9877	0.02302192
39	0xbe669c00	-0.22520447
40	0xbddf6650	-0.109081864
41	0xbdd4c7cb	-0.1038967
42	0xbe1004ff	-0.14064406
43	0xba8b6f51	-0.0010638033
44	0xbe229898	-0.15878522
45	0xbdf1deac	-0.118100494
46	0xbd89ef36	-0.06735079
47	0xbd96edfe	-0.07369612
48	0xbe262332	-0.16224363
49	0xbd6aa8c3	-0.05728985
50	0xbe027c00	-0.12742615
51	0xbdf050ba	-0.11734147
52	0xbddbe05f	-0.10736155
53	0xbddd32ed	-0.10800729
54	0xbd5fa95d	-0.054604877
55	0xbd150c8f	-0.03638893
56	0xbd7b9d15	-0.061429102
57	0xbd48d7b6	-0.049033843
58	0x3d914ca3	0.070946954
59	0xbd0294fd	-0.031880368
60	0xbdd073b0	-0.10178316
61	0xbdd1eca7	-0.10250216
62	0xbd728311	-0.059207026
63	0xbcbe8309	-0.023255842
64	0x3caf6368	0.021409705
65	0xbdd808fc	-0.10548589
66	0xbcddaff7	-0.027061446
67	0x3caed3a7	0.021341158
68	0xbe3a8d73	-0.18218021
69	0x3d81a691	0.06330598
70	0xbc880161	-0.01660222
71	0xbddd45b1	-0.10804308
72	0xbe0fbeaf	-0.14037584
73	0xbe059741	-0.1304598
74	0x3d9e0f8d	0.0771781
75	0xbda2c1a3	-0.079470895
76	0xbd4d9dd3	-0.05019934
77	0xbdf3d02e	-0.119049415
78	0xbe167d64	-0.1469627
79	0x3e04808f	0.12939666
80	0xbdb605a2	-0.08887793
81	0xbcf81690	-0.030284196
82	0xbe0b6791	-0.13613726
83	0xbdcfd8be	-0.10148762
84	0xbd309aa9	-0.043116245
85	0xbdda90ea	-0.106721714
86	0x3b6437d3	0.0034823313
87	0x3cba0bb6	0.022710662
88	0xbd7e0140	-0.06201291
89	0xbe06c4e0	-0.1316104
90	0xbce1bd3f	-0.02755606
91	0xbd0a33cb	-0.0337408
92	0xbdc16f7e	-0.094450936
93	0x3dbc6fba	0.09200998
94	0xbd9bb142	-0.076021686
95	0x3df65973	0.1202878
96	0xbe005d94	-0.12535697
97	0xbd5d7a53	-0.054071736
98	0xbbe11bad	-0.0068697543
99	0xbd4a710b	-0.049424212
100	0xbdbc3449	-0.0918966
101	0xbd7f844b	-0.062382024
102	0xbd959599	-0.07303924
103	0xbda03729	-0.07823021
104	0xbe983cd5	-0.2973391
105	0x3d9a3a24	0.07530621
106	0xbe4c3be0	-0.19944715
107	0xbde91820	-0.113815546
108	0xbdf748f9	-0.12074465
109	0x3dcadba1	0.09905172
110	0xbce62ae3	-0.028096622
111	0xbd671030	-0.056411922
112	0xbe0ad489	-0.13557638
113	0xbd7c562b	-0.061605614
114	0xbe45ebf0	-0.19328284
115	0x3c298d9d	0.010348705
116	0xbcb8f435	-0.022577384
117	0xbd8e6ee0	-0.069547415
118	0xbd6425d6	-0.055700146
119	0xbdd3dbaa	-0.10344632
120	0xbdd19fe4	-0.10235575
121	0xbd38d30e	-0.045123152
122	0x3d2b6012	0.041839667
123	0xbd17702d	-0.036972214
124	0xbd7ccab5	-0.061716754
125	0xbb4c28ea	-0.0031152316
126	0x3d03e5aa	0.032201447
127	0x3d9f4174	0.07776156

conv_blocks.14.weight f4 [128]
0	0x3f793101	0.973404
1	0x3f76e72d	0.96446496
2	0x3f5f76a5	0.8729041
3	0x3f75f02a	0.96069586
4	0x3f865205	1.049378
5	0x3f6b6c1f	0.91961855
6	0x3f6dd993	0.92910117
7	0x3f73cf40	0.95238113
8	0x3f3bb4dd	0.7332285
9	0x3f8f6a7d	1.1204373
10	0x3f606470	0.87653255
11	0x3f7b523b	0.9817235
12	0x3f76ce94	0.96408963
13	0x3f5228ab	0.82093304
14	0x3f5adbbe	0.8549155
15	0x3f66b41a	0.90118563
16	0x3f8a5811	1.0808126
17	0x3f78a9ca	0.9713408
18	0x3f65c63d	0.8975561
19	0x3f4d25e0	0.8013592
20	0x3f6876af	0.90806097
21	0x3f7dbf7e	0.9912032
22	0x3f6b565d	0.91928655
23	0x3f8e206f	1.1103648
24	0x3f695f9d	0.9116152
25	0x3f693fef	0.9111318
26	0x3f697b3a	0.91203654
27	0x3f72b120	0.9480152
28	0x3f6880d4	0.90821576
29	0x3f87c484	1.0606847
30	0x3f795b7b	0.97405213
31	0x3f6f0287	0.9336323
32	0x3f82ebbc	1.022819
33	0x3f5dc436	0.8662752
34	0x3f862208	1.0479136
35	0x3f83e000	1.0302734
36	0x3fa29e22	1.2704508
37	0x3f86d15a	1.0532639
38	0x3f61a906	0.88148534
39	0x3f72980b	0.9476325
40	0x3f6dd96b	0.9290988
41	0x3f7edce3	0.99555796
42	0x3fb1fcb5	1.3905245
43	0x3f79946a	0.97492087
44	0x3f8a8da0	1.082447
45	0x3f631b7c	0.8871381
46	0x3f6268e8	0.88441324
47	0x3f90ea7f	1.1321563
48	0x3f5f544b	0.87237996
49	0x3f73f162	0.95290196
50	0x3f68c44e	0.9092454
51	0x3f6a1d99	0.9145141
52	0x3f6dacdb	0.9284188
53	0x3f5fbeb8	0.8740039
54	0x3f87e7b7	1.0617589
55	0x3f85fc39	1.0467597
56	0x3f83b1b1	1.0288602
57	0x3f5e2b3f	0.8678474
58	0x3f8793bf	1.0591964
59	0x3f73db75	0.9525674
60	0x3f8972d0	1.0738163
61	0x3f4aeb41	0.7926522
62	0x3f920d17	1.1410245
63	0x3f764249	0.96194893
64	0x3f5fea53	0.87466925
65	0x3f7bf252	0.98416626
66	0x3f735af8	0.9506068
67	0x3f6e3212	0.9304515
68	0x3f71b58d	0.9441765
69	0x3f855f9f	1.0419806
70	0x3f88df51	1.0693151
71	0x3f703597	0.9383177
72	0x3f7acc48	0.9796796
73	0x3f79b09d	0.97535115
74	0x3f76a78b	0.963494
75	0x3f8b021c	1.0860019
76	0x3f832b1e	1.0247533
77	0x3f5b325a	0.85623705
78	0x3f97f4d9	1.1871597
79	0x3f6670e4	0.9001601
80	0x3f68a420	0.90875435
81	0x3f6b1fae	0.91845214
82	0x3f7b4160	0.9814663
83	0x3f6fd23e	0.9368018
84	0x3f713062	0.9421445
85	0x3f76cde5	0.9640792
86	0x3f7373a7	0.95098346
87	0x3f82b2a6	1.0210769
88	0x3f584148	0.8447461
89	0x3f84ed71	1.0384961
90	0x3f638aba	0.88883555
91	0x3f72cfe2	0.94848454
92	0x3f752c41	0.9577065
93	0x3f744253	0.954137
94	0x3f564887	0.8370442
95	0x3f66f5c7	0.90218776
96	0x3f572c54	0.84052014
97	0x3f68a435	0.9087556
98	0x3f7621a4	0.9614508
99	0x3f9207a4	1.1408582
100	0x3f7c0773	0.98448867
101	0x3f76fb7f	0.964775
102	0x3f72bcda	0.94819415
103	0x3f79fcbd	0.97651273
104	0x3f65b09e	0.8972262
105	0x3f880e12	1.0629294
106	0x3f51773d	0.8182257
107	0x3f61a00e	0.8813485
108	0x3f6ce234	0.9253266
109	0x3f8d3532	1.1031859
110	0x3f69ea0b	0.91372746
111	0x3f80e2f2	1.0069258
112	0x3f815648	1.0104456
113	0x3f647c50	0.89252186
114	0x3f4fbab0	0.8114424
115	0x3f621609	0.8831487
116	0x3f47777c	0.77916694
117	0x3f5381db	0.8262002
118	0x3f6dcf8a	0.92894804
119	0x3f5e9843	0.8695108
120	0x3f75d0bf	0.96021646
121	0x3f704bf2	0.93865883
122	0x3f87d862	1.061291
123	0x3f625c38	0.88421965
124	0x3f5bab31	0.8580809
125	0x3f7e1804	0.99255395
126	0x3f79f59f	0.97640413
127	0x3f7f81f5	0.99807674

conv_blocks.14.bias f4 [128]
0	0xbd31ee9e	-0.043440454
1	0xbba8806f	-0.0051422636
2	0xbc4d70c4	-0.012539092
3	0xbd184f31	-0.037184898
4	0xbd2d33a2	-0.04228557
5	0xbcffd818	-0.031230971
6	0xbd1c2a08	-0.03812602
7	0xbce4496c	-0.027867042
8	0x3bca347e	0.0061708083
9	0xbc181305	-0.009281878
10	0x3d10ea8d	0.035379935
11	0xbd265d9b	-0.040616613
12	0x3bbe3dbe	0.0058057
13	0x3beb8e9f	0.0071886326
14	0x3c42cec9	0.011890122
15	0x3d194fb1	0.037429515
16	0xbd7018b9	-0.058617327
17	0xbd1c4056	-0.038147293
18	0x3ca8ab52	0.020589504
19	0xbc66c315	-0.014084597
20	0x3d9cf5ec	0.076640934
21	0x3d0ec60a	0.034856834
22	0xbd107b8b	-0.03527407
23	0x3d6ea1cf	0.05825978
24	0x3c849f89	0.016189354
25	0x3d0359d6	0.032068096
26	0x3b8b7f44	0.0042571146
27	0xbc74d86c	-0.014944177
28	0x3d2b90b4	0.041886047
29	0x3bbae4bc	0.005703537
30	0x3d9831ff	0.07431411
31	0x3cd6ab15	0.026204625
32	0xbd70b202	-0.05876351
33	0xbcfb6a60	-0.030690372
34	0x3d2416b6	0.04006072
35	0x3c7b17d6	0.015325507
36	0x3c62b896	0.013837954
37	0xbaed73a6	-0.0018116131
38	0x3b3f3f80	0.0029182136
39	0x3d13b75f	0.03606355
40	0x3bd04d44	0.006356867
41	0xbc7072a1	-0.014675767
42	0x3c949823	0.01813895
43	0x3c5b5cba	0.013388807
44	0x3aa6d664	0.0012728688
45	0x3d46b722	0.048514493
46	0x3b816695	0.0039489963
47	0xbcab0db1	-0.020880552
48	0xbb897e4f	-0.0041959654
49	0xbbb73d1d	-0.005592002
50	0x3b8883d1	0.0041661044
51	0x3c4236ff	0.011853932
52	0xbd25d6ac	-0.04048793
53	0x3d0079cb	0.03136615
54	0x3d0ac91d	0.033883203
55	0xbd1ae899	-0.03781948
56	0x3d07d28a	0.03315977
57	0x3d7085ec	0.058721468
58	0x3d4689b4	0.048471168
59	0x3cbf0c36	0.023321252
60	0x3be19847	0.006884608
61	0xb93d28b9	-0.00018039615
62	0xbce2e244	-0.027695782
63	0xbc95d9b2	-0.018292282
64	0xbbe26997	-0.00690956
65	0xbd7099d5	-0.058740456
66	0xbabd5a92	-0.0014446548
67	0x3bd4d8ef	0.006495587
68	0xbd820924	-0.063494
69	0x3b86934a	0.0041069137
70	0xbcd39b50	-0.025830895
71	0x3cd01b82	0.025403742
72	0xbd0083c0	-0.031375647
73	0x3cbfc3b6	0.023408752
74	0x3d11ca35	0.03559323
75	0xbc4a40c1	-0.01234454
76	0xbd30e6b0	-0.04318875
77	0xbd2ca903	-0.04215337
78	0x3d8b19bb	0.06792017
79	0xbcebf78e	-0.028804567
80	0x3c93b8d5	0.01803247
81	0xbc5e6737	-0.013574413
82	0x3bf9b088	0.007619921
83	0xbd06945d	-0.032856334
84	0x3d5f3641	0.0544951
85	0xbc2fd3a0	-0.010731608
86	0xbca31a53	-0.019910013
87	0x3c402d67	0.011729575
88	0xbcbb0bc1	-0.022832753
89	0x3c60e8f6	0.013727417
90	0xbd2c7100	-0.042099953
91	0xbac65231	-0.0015130696
92	0xbcb9bfc3	-0.022674447
93	0x3b946d3a	0.0045296224
94	0xbc7335d8	-0.01484438
95	0x3da46fb0	0.08029115
96	0xbd56a4f3	-0.0524034
97	0x3cf8886f	0.030338494
98	0xbc43b69e	-0.011945395
99	0x3d97d512	0.07413687
100	0x3d87de46	0.06634192
101	0xbd54dde0	-0.05196941
102	0x3cfb1227	0.030648304
103	0xbc9c2491	-0.019060405
104	0xbd43ef3d	-0.047835577
105	0x3d29dac5	0.0414684
106	0x3ad22e9b	0.0016035618
107	0xb6283d18	-2.5069512e-06
108	0xbce2e6d2	-0.027697954
109	0x3cd7a642	0.026324395
110	0xbcd13d19	-0.025541829
111	0x3c8baa60	0.017049015
112	0xbd56af85	-0.052413482
113	0x3c9c9212	0.01911262
114	0x3d2c5051	0.042068783
115	0xbc8d2f40	-0.017234445
116	0x3d037a1c	0.032098874
117	0x3cda49ee	0.02664658
118	0x3c03746f	0.008023365
119	0xbd463744	-0.04839255
120	0x3d816a24	0.06319073
121	0xbd3a568d	-0.045492698
122	0xbc9989f5	-0.01874254
123	0x3cef7594	0.02923087
124	0x3cbb7c67	0.022886468
125	0xbd2ce031	-0.042205993
126	0xbcaaddbd	-0.020857686
127	0x3c196146	0.009361571
